lambda_map_predictor/deep_model.pth (torch, 25077 bytes, 14 tensors)

model.0.weight f4 [64, 2]
000000 58 22 c3 bb a2 25 22 3c eb 20 a6 bb 2b bc 42 3c
       -0.005955022 0.009896668 -0.005069842 0.011885683
000010 22 88 13 ba 0e 8c 1d be 43 50 a1 bb 05 e1 42 3c
       -0.00056278904 -0.15385458 -0.004922898 0.011894469
000020 ed d4 c0 bb 0b 32 9c 3a e1 89 33 3a e6 0c eb 3d
       -0.0058847577 0.001191677 0.00068488537 0.114770696
000030 3b 53 05 3c 07 b8 e3 ba 5d f9 cf 3a 48 bf 4f 3d
       0.0081375195 -0.001737357 0.0015867163 0.05071953
000040 42 80 cd 3b d9 f3 25 3b 6f 89 bb 3b 13 69 b8 ba
       0.006271393 0.0025322346 0.0057231705 -0.00140694
000050 55 df cb 3b e2 ef 91 3b ba 28 05 bc 40 16 07 3c
       0.0062216916 0.004453645 -0.008127386 0.008245051
000060 f5 ec d9 bb 95 f0 09 3c 9e 20 af bb e6 0c 03 3d
       -0.006650562 0.008419176 -0.0053444644 0.031994723
000070 c8 04 e3 3b 42 20 43 39 96 94 f9 bb 99 29 78 ba
       0.00692806 0.00018608666 -0.00761659 -0.0009466648
000080 cf cc bf 3b 5a c5 f4 3b be d5 77 bb 35 05 a8 3a
       0.0058532725 0.007469815 -0.003781661 0.0012818935
000090 72 73 f3 3b d5 1c 7e 3b af da a0 ba 0c 17 1a 3e
       0.0074295336 0.003877451 -0.0012272204 0.15047854
0000a0 29 a8 8b 3b 3c a1 6d bb 07 95 83 bb d7 16 3c 3b
       0.0042619896 -0.0036259433 -0.004015568 0.0028700137
0000b0 87 bc a4 3b f7 1b c6 3a d8 cf bc 3b 89 c3 c0 3b
       0.005027357 0.0015114535 0.0057620816 0.0058826846
0000c0 1f eb 42 ba 0d 13 08 3c 45 fc 62 bb f4 87 82 3c
       -0.00074355485 0.008305323 -0.0034635228 0.015933968
0000d0 56 70 c4 bb a2 d4 ed 3b d1 f3 8a bb e8 95 02 3c
       -0.005994837 0.007258014 -0.004240491 0.007970311
0000e0 15 d7 ab bb 80 5d 59 3a 97 f6 88 3b 69 9b 32 bb
       -0.0052441456 0.00082918257 0.0041797864 -0.0027253276
0000f0 09 e4 7f 39 97 81 35 3e c3 0b c3 bb c5 7c 8d 3b
       0.00024403645 0.17725216 -0.00595233 0.004317852
000100 59 8c a8 bb c7 14 85 3b f8 d5 7b bb ab 61 8f 3c
       -0.005143684 0.0040613147 -0.0038427096 0.017502626
000110 74 4f 8d 3a bf 29 8b 3d f4 dc 12 3b bd 78 16 3d
       0.0010781125 0.06795072 0.002240953 0.03673624
000120 1f 2e e6 3b e4 a9 4d bb 84 e8 91 bb 8e 72 b7 3e
       0.007024541 -0.003138178 -0.004452767 0.35829586
000130 36 4a fc 3b 8f 89 06 bb 4c 01 d4 bb a3 9f eb 3a
       0.0076992763 -0.0020528769 -0.006469881 0.0017976653
000140 1c c5 4c 3b 3d ff 97 3c 9e a1 98 3a ea bb 5f 3d
       0.0031245416 0.018554324 0.0011644845 0.05462257
000150 ac 0b 2c bc 35 24 ba 3b 07 91 8c 3b 58 75 00 3b
       -0.01050083 0.0056805857 0.0042897495 0.0019601192
000160 44 65 01 bc 1a 79 7d 3c 71 55 a8 3b 41 f3 89 b9
       -0.007897679 0.015470767 0.0051371385 -0.00026311915
000170 5f 60 02 bc 3f ac 91 3c 23 d2 4b 3b a3 6a 50 3c
       -0.007957547 0.017782329 0.0031100593 0.012720737
000180 52 18 cd bb 10 b9 23 3c ce 55 e9 3b 38 1c 7e 3b
       -0.0062590027 0.009992853 0.0071208244 0.0038774144
000190 47 96 d1 bb 24 83 63 3d a1 99 14 3b 7c 38 68 3c
       -0.0063960883 0.055544987 0.0022674578 0.014173623
0001a0 2b 66 67 b9 22 ec d7 bb ed 57 9f 3b c3 ef 2b 3b
       -0.00022067937 -0.0065894285 0.0048627765 0.0026235438
0001b0 f9 02 35 3b e7 db 55 3c bd 14 f6 3b 3c ed 85 3b
       0.002762018 0.013052917 0.0075097964 0.0040871184
0001c0 c5 77 27 3a 7e 27 27 3e e3 29 15 bb 0e 52 93 3c
       0.00063883915 0.16323659 -0.0022760562 0.017983463
0001d0 14 86 8c bb d6 2a c7 3c 7d ba ba 3b fe 8d c0 bb
       -0.0042884443 0.024312418 0.0056985007 -0.005876302
0001e0 d8 17 9b bb 1c 41 01 3b fb 7b d4 3b c1 aa 93 3b
       -0.004733067 0.0019722646 0.006484506 0.0045064394
0001f0 4e 4e a7 ba bd 8a 18 3d 6d bd 05 3a d3 8f 1b 3e
       -0.0012764425 0.037241686 0.0005101774 0.15191583

model.0.bias f4 [64]
000000 f0 a5 f0 36 9a 39 33 37 39 5c 0b b8 22 b3 0d 37
       7.171875e-06 1.0682643e-05 -3.322607e-05 8.4459625e-06
000010 a3 bd 87 36 ca 88 2e 38 20 e6 b4 b4 2a d5 2d 36
       4.04539e-06 4.1612228e-05 -3.369505e-07 2.5903087e-06
000020 e3 4d f9 36 90 b1 9a b5 f4 8a 52 b7 7a 77 2c b8
       7.4298455e-06 -1.1525572e-06 -1.2549328e-05 -4.1119267e-05
000030 60 c4 48 b7 31 7a 94 b7 f3 ee a0 35 fc fe 38 b8
       -1.1966651e-05 -1.7699875e-05 1.1990472e-06 -4.410649e-05
000040 59 23 71 b6 b8 72 2d b7 b0 57 ee 35 37 d2 af b7
       -3.5932374e-06 -1.0338314e-05 1.7757902e-06 -2.0959515e-05
000050 fe b6 1d b7 80 23 d3 37 94 10 61 37 67 dc 04 36
       -9.400535e-06 2.5169691e-05 1.3414905e-05 1.9797824e-06
000060 ca b9 f8 b4 db b3 25 b7 c8 8b 5c b7 08 39 5d 37
       -4.632878e-07 -9.876642e-06 -1.3145567e-05 1.3185905e-05
000070 8c 1c fa 37 00 0e dd 32 b8 00 d2 b5 c2 71 a5 37
       2.9815616e-05 2.5734153e-08 -1.5646428e-06 1.9722505e-05
000080 74 1d 30 b7 e8 58 52 39 20 ce ad b7 04 97 90 36
       -1.0497275e-05 0.00020060281 -2.0719192e-05 4.309115e-06
000090 70 aa 1e 36 e2 54 d2 36 29 2c 00 b6 60 21 b4 b7
       2.3643042e-06 6.2683694e-06 -1.909919e-06 -2.1473214e-05
0000a0 c6 3a 0a b7 c7 00 88 b7 30 17 84 b7 8c a2 b6 b5
       -8.239125e-06 -1.6212825e-05 -1.5746424e-05 -1.3607364e-06
0000b0 c2 79 1b b8 da 24 9d 36 cb 61 9e 37 34 d2 17 b6
       -3.7068276e-05 4.6832547e-06 1.8880606e-05 -2.2623108e-06
0000c0 c0 25 38 38 61 75 df b6 9c b4 05 38 80 41 10 b6
       4.3904176e-05 -6.6595826e-06 3.1877877e-05 -2.1495798e-06
0000d0 c8 83 1c b3 31 80 48 b4 00 98 8d b3 b3 12 d2 b6
       -3.6441435e-08 -1.8673087e-07 -6.593473e-08 -6.2606646e-06
0000e0 59 7e 34 b8 0e 57 ef b7 9e 0e 15 b7 f2 31 3d 35
       -4.3033015e-05 -2.8531558e-05 -8.884495e-06 7.0480667e-07
0000f0 49 0a 6a 35 b8 e6 f6 b4 8b df b5 b8 b6 d4 03 38
       8.718676e-07 -4.598894e-07 -8.672391e-05 3.1430936e-05

model.1.weight f4 [64]
000000 b0 07 51 3e e4 10 54 3e 71 d9 da 3e eb bd 9d 3d
       0.20413089 0.20709568 0.4274402 0.077022396
000010 c4 7d 24 3e a3 a3 c3 3e 8e 76 b0 3e c4 e6 ce 3e
       0.16063601 0.38210782 0.3446545 0.40410435
000020 91 f9 57 3e 3f 3e 51 3e 14 36 84 3e 52 b4 87 3e
       0.21091296 0.20433901 0.25822508 0.2650476
000030 78 83 72 3e 9f 02 b2 3e 6f 6a 4f 3e 5e 67 71 3e
       0.23682964 0.34767625 0.20255445 0.23574588
000040 ac 45 90 3e d2 94 09 3e 7d df 7c 3e 2e 21 2e 3e
       0.28178155 0.13435677 0.24694629 0.17004845
000050 10 cb 86 3e 57 7d 6d 3d 4e 21 ba 3e 40 78 6f 3e
       0.263268 0.05798086 0.36353534 0.23385715
000060 ca 76 c5 3d 55 82 71 3e d2 d2 5a 3e 94 88 17 3e
       0.09641798 0.23584874 0.21369484 0.14798194
000070 e5 52 9d 3d ef 0b 92 3e e1 bd aa 3e b1 a3 ec 3d
       0.076818265 0.2852473 0.3334799 0.11554659
000080 f6 96 2a 3e bc cc 1c 3e 8b d3 c2 3e 3a 29 bf 3e
       0.1665915 0.15312475 0.3805202 0.3733614
000090 af 19 87 3e b6 b1 8e 3e 12 99 58 3e d7 c5 76 3e
       0.26386783 0.27869958 0.21152142 0.24098907
0000a0 23 e3 ec 3e dd 82 c2 3e e4 c7 92 3e 1f d4 86 3e
       0.46267042 0.37990466 0.2866813 0.2633371
0000b0 87 6a d9 3e 17 90 84 3e b2 6b 03 3f 1e 53 a7 3e
       0.42464086 0.25891182 0.51336205 0.326806
0000c0 e6 f7 4b 3e b2 12 7d 3e 9f 0e 1e 3e d1 78 87 3e
       0.19918784 0.24714163 0.15435265 0.26459363
0000d0 a1 7c 87 3d 6b 85 26 3e ae 06 ad 3e e5 bd c7 3e
       0.06615568 0.16261832 0.3379416 0.39012066
0000e0 8d 0f e9 3e 41 32 bd 3d 21 98 91 3e 4b 4d 4e 3e
       0.45519677 0.09238101 0.28436378 0.20146672
0000f0 62 0e 8b 3d f4 f5 a4 3e 51 04 59 3e bd 24 bd 3e
       0.06789853 0.32218897 0.21193053 0.36942092

model.1.bias f4 [64]
000000 b3 ee 93 bd f4 7d 6e bd 46 a8 95 bd 95 96 54 bd
       -0.07223263 -0.058225587 -0.07307486 -0.05190142
000010 56 c0 83 bd bc 2b 86 3d c6 32 1b bd 42 52 53 3d
       -0.064331695 0.065513104 -0.03789022 0.05159212
000020 9f 26 26 3c c5 a4 9d 3c 43 d8 a9 3b 11 c1 c5 bd
       0.010141044 0.019243607 0.005183251 -0.09655965
000030 96 f2 ad bd 6f cf 51 bd 9c 66 f8 bb 42 81 df bd
       -0.08493535 -0.051223215 -0.0075805914 -0.10913326
000040 2f 5b 99 bc 5d b6 44 bd 74 a6 df bc 06 94 b8 bb
       -0.018720238 -0.048025478 -0.02730105 -0.00563288
000050 66 09 e3 3a 02 c0 03 bd 7b 65 91 bc e2 55 88 bc
       0.0017321527 -0.032165535 -0.017748585 -0.016642515
000060 32 c2 76 bd 91 83 f3 bd 3b 14 d8 bd 49 01 98 bd
       -0.060243793 -0.11890329 -0.10550734 -0.0742212
000070 79 45 00 bd 67 4e d9 38 19 6f d7 3c a6 af 19 bd
       -0.031316254 0.0001036197 0.026298093 -0.037521027
000080 78 42 bd bd e2 d1 08 be c5 2e ff 3c a4 99 08 3d
       -0.092411935 -0.13361314 0.031150231 0.033349648
000090 d7 15 fa bc 47 cc 9d bc b8 cb 10 bc d7 c5 f8 bd
       -0.030527992 -0.019262446 -0.008837633 -0.1214711
0000a0 ec 76 ca 3c 73 8e 29 3d 9b 9b 57 bd a7 04 dd 3c
       0.02471491 0.041395616 -0.05263863 0.026979757
0000b0 86 54 c7 bd c8 57 79 b9 93 79 a7 bd cd 5f 4a 3c
       -0.097329184 -0.00023779192 -0.08177485 0.012351942
0000c0 c5 54 8b bd ce 71 f3 bc 8f ab 0b be ff e3 e5 3c
       -0.06803278 -0.029717352 -0.13639663 0.028062819
0000d0 86 60 ac bc f6 47 50 3c f3 09 10 3d c5 bc d8 bc
       -0.02104212 0.012712469 0.03516574 -0.0264572
0000e0 ae cf f8 3c 60 65 e8 bc eb 10 6f bd fc e6 e7 3c
       0.030372467 -0.028368652 -0.058365744 0.028308384
0000f0 e3 41 ef bc 38 ed 01 bd 47 9d c1 bd 2e bc f7 3c
       -0.029206222 -0.03172037 -0.094538264 0.030241098

model.1.running_mean f4 [64]
000000 fd d2 91 bc f7 ba 73 bc f1 a5 0a bc a4 e2 69 bc
       -0.017800802 -0.014876119 -0.008462415 -0.014275227
000010 38 3c 94 bc 90 25 e8 3b c9 47 c7 3c 38 0a e7 3b
       -0.01809512 0.007084556 0.024326222 0.0070507787
000020 e5 48 98 3c 20 31 86 3c 19 dd 99 3c 46 5d be bc
       0.018589446 0.016380847 0.018782185 -0.023237836
000030 17 c2 a0 bc 21 b1 65 bc a8 ed ac 3c ec 76 bd bc
       -0.0196238 -0.014019282 0.021109417 -0.023127995
000040 45 67 8e 3c 91 95 3a bc 95 9d b6 3c ca b4 31 3b
       0.017383227 -0.0113881985 0.022291938 0.0027115815
000050 ef b4 52 3c d9 38 43 bc 54 f7 78 3c 6e 83 8f 3c
       0.012860521 -0.011915409 0.015195686 0.017518725
000060 29 31 f6 ba 2d 6a 1f bc fd 7e 95 bc a7 3c 4b bc
       -0.0018782961 -0.009729904 -0.01824903 -0.012404597
000070 f5 f6 7f bc 5e 40 51 3c 0a 8b 08 3c 46 36 93 bc
       -0.015622844 0.012771694 0.008333931 -0.017970216
000080 9b 6a 82 bc 30 78 32 bc ff e2 cc 3b dc 50 07 3c
       -0.015919974 -0.010892913 0.006252646 0.0082590245
000090 f7 06 ae 3c b3 98 24 3b b4 0a bb 3c e0 32 a0 bc
       0.021243555 0.002511543 0.022832252 -0.01955551
0000a0 47 e9 29 3c 9a 6a be 3b 06 9b 00 bd b9 fb 5c 3c
       0.010370559 0.0058110477 -0.031397842 0.01348775
0000b0 76 12 be bc 87 45 84 3c ba cf bd bc 83 e8 1d 3c
       -0.023202162 0.016146434 -0.02317034 0.009637955
0000c0 b8 64 8d bc a4 37 ac 3c aa 20 8a bc ea 73 ec 3b
       -0.01725994 0.021022625 -0.016861279 0.0072159665
0000d0 1e 36 7c ba 42 fa 70 3c 27 53 12 3c ef 77 b9 3c
       -0.0009621101 0.014708104 0.008930958 0.022640197
0000e0 82 2f 16 3c 8d ae b3 bb 29 eb 38 bc 93 ba 8c 3c
       0.0091666 -0.0054834546 -0.011286535 0.01717881
0000f0 d8 d9 66 bc cb 0f 9d 3c 12 f8 f8 ba fe 4f 07 3c
       -0.014090024 0.01917257 -0.0018994829 0.008258818

model.1.running_var f4 [64]
000000 8c e6 89 39 08 3f 44 39 82 1e 3c 37 7a 13 35 39
       0.00026302447 0.00018715498 1.1212776e-05 0.0001726876
000010 d4 78 8a 39 9f 92 27 37 76 2b fa 39 69 5e c3 37
       0.00026411435 9.988114e-06 0.00047716097 2.3289775e-05
000020 bb 19 90 39 5a 8f 63 39 10 17 92 39 57 dd e8 39
       0.0002748499 0.0002170181 0.00027864473 0.000444154
000030 82 c0 a6 39 af f6 3f 39 e9 50 bb 39 d1 bb e0 39
       0.00031805417 0.00018307076 0.00035727702 0.00042864544
000040 ad 3c 77 39 33 b1 db 38 27 bf ce 39 ed c5 e3 36
       0.00023578359 0.0001047574 0.000394338 6.788169e-06
000050 0f e2 0d 39 a2 fa f2 38 11 0d 41 39 9e 9b 7c 39
       0.00013531021 0.00011586143 0.00018410782 0.00024090565
000060 01 b8 7a 36 21 1c b1 38 3a bd 8f 39 24 14 07 39
       3.7360007e-06 8.445257e-05 0.0002741607 0.00012882106
000070 45 27 4e 39 19 3d 0b 39 91 63 0d 37 77 1c 8a 39
       0.0001966032 0.00013278834 8.427437e-06 0.0002634262
000080 aa de 58 39 e6 71 df 38 2f 4f 60 37 14 e6 27 38
       0.00020682314 0.00010654684 1.3369877e-05 4.003018e-05
000090 d3 c8 bf 39 fa 78 b4 38 7b c1 dc 39 bf fd a1 39
       0.00036579985 8.6056025e-05 0.00042105824 0.0003089737
0000a0 d7 1c a0 38 53 f4 5c 37 83 c4 51 3a 86 95 17 39
       7.6347664e-05 1.3169908e-05 0.0008002 0.00014456184
0000b0 d8 14 ec 39 5d da 5b 39 fe a3 ed 39 c6 1b 8f 38
       0.00045028958 0.00020966814 0.00045326346 6.8239446e-05
0000c0 0a d1 82 39 9b cc b7 39 a8 9e 92 39 95 76 19 38
       0.00024951278 0.00035056923 0.00027965498 3.658848e-05
0000d0 d0 ea ef 34 99 bd 33 39 18 0f 73 38 dd 1d d5 39
       4.4688068e-07 0.00017141401 5.7949772e-05 0.00040648776
0000e0 a0 f1 6c 37 84 97 fb 37 57 59 f6 38 17 05 7e 39
       1.4122954e-05 2.9992087e-05 0.00011746835 0.00024225224
0000f0 dc c4 28 39 91 66 98 39 7c 39 06 37 82 83 34 37
       0.00016095064 0.00029068117 8.0004065e-06 1.0759455e-05

model.4.weight f4 [64, 64]
000000 2f d3 53 bb 9f 2d c5 3b f1 90 b0 38 09 b3 19 3c
       -0.003232192 0.0060174013 8.4193314e-05 0.009381064
000010 97 76 32 bc b9 aa 00 3b b2 a3 bf 39 d3 1d 0e bc
       -0.010892532 0.0019633009 0.0003655232 -0.008674103
000020 5e 14 4f 3a 6f 8a df 3a 49 07 d8 3a 84 5d c8 3b
       0.0007899458 0.0017054806 0.0016481663 0.0061146636
000030 f7 69 0e bc 36 4c 4a 3a 5c 55 b4 ba f5 19 5f 3b
       -0.008692256 0.0007717045 -0.0013758349 0.0034042571
000040 83 76 bf bb c9 77 01 3c ab 59 9c bb 20 d0 63 3c
       -0.005842985 0.007902094 -0.0047714314 0.013904601
000050 5c 30 1b 3c 97 5f 16 3b 1b 92 3d 3b ba 7f 57 39
       0.009471979 0.002294516 0.0028926197 0.0002055158
000060 0a b7 6e 3b 34 22 f7 3b b2 29 f0 3a ad de c1 3b
       0.0036425018 0.007541919 0.0018322973 0.0059164376
000070 09 ad ac 3b 62 6b a8 bb 15 d7 0a 3d 7b 36 6e ba
       0.005269651 -0.005139754 0.033896524 -0.0009087098
000080 0c 32 fa 3b 15 52 e1 3c 42 5e 5a bb 17 95 a5 bb
       0.0076353606 0.02750496 -0.0033320342 -0.0050531733
000090 fd 44 e7 bb 78 1f f7 3c a8 7b ea ba 8a cb 28 bb
       -0.0070577846 0.030166373 -0.0017889636 -0.0025756084
0000a0 5f 04 ec 3b 81 17 2a 3c f4 b2 93 ba cb fe c3 3a
       0.0072026695 0.01038158 -0.0011268542 0.0014953254
0000b0 61 f6 fe bb 48 0e 74 bb 0f 7d ba 3c a8 ba 02 bb
       -0.0077808355 -0.0037239958 0.02276471 -0.0019947682
0000c0 c7 5e 62 3b 3a a1 cf bb f1 b6 69 3d 8e 2a cb b9
       0.0034541355 -0.0063363584 0.057059232 -0.00038750883
0000d0 3b 4d 79 3a be 2d c5 bb df 96 87 ba 45 8e a4 3a
       0.00095101044 -0.006017416 -0.0010344646 0.0012554607
0000e0 e3 e9 40 3c 9c d9 3a 3b 9a 41 45 3c d3 c4 24 bb
       0.011774513 0.0028511053 0.012039566 -0.002514173
0000f0 97 0d 23 bb 2b 47 8c ba 26 94 f8 bb 78 95 24 3c
       -0.0024879926 -0.0010702362 -0.00758602 0.010045402
000100 fd ac 4d 3d 3b 0a 95 3d d8 fd 3f 3d 1d 6f 7f bc
       0.050213803 0.07277342 0.046872944 -0.015590456
000110 75 7e 12 3d 43 42 9e bc 2f 38 08 bc d3 60 a3 3d
       0.03576513 -0.019318705 -0.008314176 0.07977452
000120 d5 3c 6d 3c 19 82 8b 3d aa e8 ff bc 38 9c 37 bd
       0.0144798355 0.068119235 -0.031238873 -0.044826716
000130 3d e0 8f 3d 97 0b c7 bd be 9f 55 3d e8 d3 4b 3d
       0.07025192 -0.097190075 0.052154295 0.049762636
000140 f8 e4 ba 3c cc 57 8c bd 50 8b 65 bd d5 4c eb bb
       0.022814259 -0.068526834 -0.056041062 -0.00718079
000150 69 82 57 3d e9 0f c7 3a 2f 3b 89 bd 4e 4d a9 bd
       0.052614603 0.0015187237 -0.067007415 -0.08266698
000160 09 6e b3 3c c0 bd 17 bd c8 9f 53 bd 5e ff 48 bd
       0.021903055 -0.037046194 -0.05166605 -0.049071662
000170 3a f5 67 bb d2 ae e2 37 c3 cb f3 3b 0f 85 74 bd
       -0.003539397 2.7022706e-05 0.007440062 -0.059697207
000180 28 e8 06 3b d7 f5 fb 3b f7 f8 39 bd 68 b6 94 ba
       0.0020585153 0.0076892185 -0.045403447 -0.0011345865
000190 e2 f6 a7 bd 46 40 8a 3d 29 11 50 3d 62 dd d6 3c
       -0.08201386 0.067505404 0.050797615 0.02622861
0001a0 46 ac df 3c c5 56 98 3d 45 e1 cd bd ef 40 1e bd
       0.027303826 0.07438425 -0.100527324 -0.038636144
0001b0 1e 94 a8 3d ad 84 2f bb b0 ac 8f 3d 0e f9 a5 bd
       0.08231376 -0.0026781962 0.070153594 -0.08104144
0001c0 07 8e 7d bd 4b b8 04 bd d1 cf 0a 3d 31 9b da 3c
       -0.061903026 -0.032402318 0.033889595 0.02668533
0001d0 fc b2 4c bc 1c 13 33 bd d0 d5 fd 3c 71 fa 4f bd
       -0.012493845 -0.043719396 0.030985743 -0.05077595
0001e0 a0 ae c3 3d 5f 9f b1 bc c2 c0 f2 3c 7a 52 2f ba
       0.095547915 -0.02168244 0.02963293 -0.000668801
0001f0 2f d7 1e 3c 83 88 81 3d 3f ab 65 3d 78 4c e5 3c
       0.009694858 0.06324866 0.056071516 0.027990565
000200 99 53 c8 bb e6 e4 fc bc 5a 2c ee 3d 3a 92 ee bc
       -0.0061134812 -0.030870866 0.11629553 -0.02912246
000210 99 cb a7 bc 41 7a ce bb a2 51 14 bd 4f 03 1d bd
       -0.020482825 -0.006301195 -0.036210664 -0.038333233
000220 29 09 97 3a 60 8c 9f bc 45 33 51 3d 4b 0e 2a bd
       0.0011523116 -0.019476116 0.051074285 -0.041517537
000230 c4 6d 11 bc be 7c 07 bc b7 de a3 3a 78 ca 7f bb
       -0.008876268 -0.008269487 0.0012502287 -0.0039030593
000240 41 ab 04 bd a2 b9 35 3c b4 8b 61 b9 be 65 16 3d
       -0.032389883 0.011091622 -0.00021509716 0.036718123
000250 b6 4b 4f 3d 3e 6d db bc 2a e3 2e 3d 98 7c 26 bb
       0.050609313 -0.02678549 0.04269711 -0.0025403854
000260 d9 3c 4b bc 39 5d 53 3b a5 b3 69 bc a7 40 b3 ba
       -0.012404644 0.003225161 -0.014264022 -0.0013675884
000270 26 ac b9 bc 44 fe 8e bc f2 e2 84 3c ad 75 4c 3b
       -0.022665095 -0.017455228 0.016221497 0.003119807
000280 29 24 cf bc 5c 2e 08 bd 56 8f 0b 3d 1d 18 dd bc
       -0.025285797 -0.033247337 0.034072243 -0.026989037
000290 af d7 09 bd 2b cd 44 3c d9 ca 01 bd 4f 69 ac bb
       -0.033652958 0.0120118065 -0.03168759 -0.005261577
0002a0 24 1a 61 bc 53 f9 d3 3c 77 14 8b bb 38 ef 74 bc
       -0.013739143 0.025875723 -0.004244383 -0.014949612
0002b0 7a 67 0e bd c8 51 1b bd 49 e7 68 3a b9 9d 4b 3d
       -0.03476665 -0.03791979 0.0008884562 0.049710963
0002c0 32 9a 44 bc cd f3 87 3c 51 d2 8a bd 3d bc 66 bb
       -0.011999654 0.016595745 -0.06778396 -0.0035207414
0002d0 9a e0 15 ba 65 a2 7b 3c 45 77 91 3c b8 f9 3b 3b
       -0.0005717367 0.015358542 0.017757067 0.002868278
0002e0 f2 fa 79 3b ae 5f 3c bc 24 2d cd 3b a3 cc bc bc
       0.003814396 -0.011497421 0.0062614847 -0.023046797
0002f0 04 49 5c 3a 4b 55 2a 3c fd 9a 2a bd 07 6d 54 3d
       0.0008403214 0.010396312 -0.041651715 0.05186179
000300 82 d4 14 39 d0 cd 2d 39 81 01 b3 b8 47 8f 95 37
       0.00014193545 0.00016575237 -8.535665e-05 1.7828903e-05
000310 bc b5 e8 38 e9 52 a8 3a fe 97 d1 b9 8d 16 8e 3a
       0.00011096473 0.0012842092 -0.0003997683 0.0010840461
000320 6e 10 22 39 a9 af 06 39 4f b8 68 b9 76 c3 97 39
       0.00015455644 0.00012844674 -0.00022193904 0.00028946594
000330 16 a1 4c 39 59 4a b6 39 aa c9 42 39 7b 88 37 39
       0.00019514965 0.00034769138 0.00018576407 0.00017503083
000340 1e 34 93 b9 99 b7 c2 38 83 76 7d 38 d0 02 4f 39
       -0.00028076855 9.2848386e-05 6.0430273e-05 0.00019742106
000350 65 e1 8d 38 04 91 67 37 b9 ad 87 ba 70 81 b3 39
       6.765387e-05 1.3802437e-05 -0.0010351456 0.0003423798
000360 9f 31 89 37 c6 d2 68 39 12 21 4a 39 a2 85 b1 38
       1.635478e-05 0.00022203763 0.00019276541 8.464909e-05
000370 0c 32 f0 37 37 21 1e 3a 10 6d 0e 3a 15 4f 87 38
       2.8633534e-05 0.0006032171 0.00054331217 6.452032e-05
000380 54 ed f4 38 b8 ab 94 38 5b a9 5c 3a 98 e1 8f 3a
       0.000116790325 7.089175e-05 0.000841757 0.0010977266
000390 9b 73 69 b8 63 98 43 3b a1 63 91 39 83 d4 52 39
       -5.5659195e-05 0.0029845468 0.00027730784 0.00020106327
0003a0 32 71 e1 3a 03 d5 9e 3a a6 49 c7 39 1d a5 f3 b8
       0.0017199873 0.0012117926 0.0003801111 -0.00011617898
0003b0 fd 3b ec 39 87 97 35 3a d1 10 9b 3a b5 e7 67 ba
       0.00045058122 0.00069271814 0.0011830573 -0.0008846478
0003c0 e9 e3 25 39 89 1e b6 38 cb f8 4d 38 eb 5f 0c 3a
       0.0001582053 8.684124e-05 4.9107515e-05 0.0005354869
0003d0 2d 82 2e b3 2c 2d 3c 39 c2 ea 40 3a 62 6f fd b9
       -4.0630926e-08 0.00017945905 0.00073592004 -0.00048338907
0003e0 12 f3 da 3a 82 63 83 38 20 5d 8f 39 ba 50 d9 39
       0.0016704521 6.2651015e-05 0.0002734447 0.0004144961
0003f0 9a ee 8b 37 97 14 bd b9 8b 9d 7b 39 b2 18 5a 3a
       1.6681199e-05 -0.0003606423 0.00023995915 0.000831972

model.4.bias f4 [64]
000000 f0 fc 6a 37 a8 5f 84 37 02 01 88 b7 26 c4 f9 2f
       1.40063785e-05 1.578017e-05 -1.6212933e-05 4.5432208e-10
000010 ba 75 a2 37 4a 18 0b b7 ee 27 10 b6 74 bb 64 0a
       1.9366726e-05 -8.290701e-06 -2.1480914e-06 1.1013057e-32
000020 d7 e8 45 b7 c0 c2 05 b6 dc 0f 97 b6 20 02 83 34
       -1.1796327e-05 -1.9931904e-06 -4.501997e-06 2.4402198e-07
000030 84 99 e4 b5 46 2e 1c 37 6e 64 f7 35 c0 89 d2 34
       -1.7032003e-06 9.3090985e-06 1.8432163e-06 3.9215774e-07
000040 f4 ba 5f 35 5c 71 9c 37 38 81 fb b7 9c 87 ae 35
       8.3346026e-07 1.8649436e-05 -2.9981704e-05 1.3003478e-06
000050 56 20 08 b8 20 ad 79 35 1e f4 1b 35 74 11 8e b6
       -3.2455042e-05 9.301166e-07 5.8097237e-07 -4.2339616e-06
000060 0f 94 94 37 b0 df ed 82 dc 78 7d 37 78 33 59 b5
       1.771192e-05 -3.495241e-37 1.5108115e-05 -8.0913696e-07
000070 74 c6 0d 37 da 1c 94 37 2b 7d 18 b5 7a 67 e4 35
       8.450461e-06 1.765641e-05 -5.6806556e-07 1.7017439e-06
000080 7a 8b 7b 35 30 31 26 36 1e f2 1a b5 f8 74 f4 35
       9.370775e-07 2.4764558e-06 -5.77218e-07 1.8213459e-06
000090 e7 a4 10 b7 ac 61 c1 36 a0 59 44 82 ce f4 e7 04
       -8.621463e-06 5.7632187e-06 -1.4425527e-37 5.4532657e-36
0000a0 90 6f c2 b5 76 ee 1f 38 b2 f2 f6 81 60 a6 a3 34
       -1.4486595e-06 3.8130638e-05 -9.071438e-38 3.048217e-07
0000b0 a7 3e 80 b6 63 4f 24 2f cc db 17 38 7e 32 cb 36
       -3.821991e-06 1.4943917e-10 3.6205907e-05 6.0557495e-06
0000c0 61 79 18 b7 98 b0 ce 80 51 0a 9a b1 3d 21 43 b5
       -9.088167e-06 -1.8981462e-38 -4.4831627e-09 -7.269153e-07
0000d0 bf 7e 24 b7 c0 60 84 b7 13 7a d6 b6 8f 87 04 37
       -9.804672e-06 -1.5780679e-05 -6.3919083e-06 7.899375e-06
0000e0 38 75 02 37 5c 61 16 01 c1 d1 f2 b5 f3 6a f1 b4
       7.775896e-06 2.76205e-38 -1.8091451e-06 -4.4967564e-07
0000f0 e0 b5 77 a5 47 29 1b 94 c8 1b 4c b3 90 d8 16 38
       -2.1485457e-16 -7.833641e-27 -4.7522718e-08 3.5964476e-05

model.5.weight f4 [64]
000000 4b b9 0d 3e be 50 58 3e 11 d6 45 3e 34 15 92 3a
       0.13840215 0.2112455 0.19319941 0.0011145235
000010 99 c6 51 3e f0 fa 4c 3e b2 83 54 3e f6 13 b9 27
       0.20485915 0.200176 0.20753363 5.1369457e-15
000020 ab 18 4f 3e a3 4c 96 3d 05 70 5f 3e e0 af 41 3e
       0.20224254 0.07338836 0.21820076 0.18914747
000030 04 e8 f5 3d 9b b5 d1 3d 78 ce f1 3d 83 4c 01 3e
       0.12007144 0.102397166 0.11806959 0.12626843
000040 6d bb 85 3d d4 3c 41 3e a0 0b a3 3e 98 89 58 3e
       0.06529889 0.1887086 0.31844807 0.21146238
000050 fc 8c 35 3e ae 15 5a 3e ec 07 ef 3c 73 cc 24 3e
       0.17729563 0.21297333 0.029178582 0.16093616
000060 62 66 80 3e 8c 54 d3 20 29 11 7c 3e 27 fb 52 3e
       0.25078112 3.580074e-19 0.24615921 0.2060362
000070 c2 30 1c 3e 6d 35 46 3e d4 b3 56 3d c1 a9 80 3d
       0.15252975 0.19356318 0.05241759 0.06282378
000080 1a 26 9c 3d 37 5c 5c 3e 69 14 8c 3d 4a 68 73 3e
       0.07624455 0.21519552 0.068398304 0.23770252
000090 f5 22 2f 3e 4c ab 88 3e c3 12 df 26 da 62 4d 23
       0.17103179 0.2669319 1.5478819e-15 1.1134005e-17
0000a0 7f cd 4e 3e 6e b6 6f 3e 0d cc 0c 80 81 2a 66 3d
       0.20195578 0.23409435 -1.175226e-39 0.05619288
0000b0 75 bb 19 3e e2 43 92 3a ae fe a3 3e 56 f7 58 3e
       0.15012915 0.0011159147 0.32030243 0.21188101
0000c0 96 70 25 3e d4 29 8d 26 fa e1 23 3b af d1 e8 3d
       0.1615623 9.795178e-16 0.0025006519 0.11368119
0000d0 84 3b 17 3e 38 24 85 3e 27 54 3e 3e f0 17 4c 3e
       0.14768797 0.26004195 0.18586789 0.19931006
0000e0 95 12 48 3e 4d 32 1c 80 a2 88 8b 3d 2d 55 82 3d
       0.19538338 -2.589438e-39 0.0681317 0.06363902
0000f0 71 5a 7d 36 4c b2 30 2d 6c 7b 32 3d 84 ce 76 3e
       3.7752582e-06 1.0044032e-11 0.043574736 0.24102217

model.5.bias f4 [64]
000000 1b b6 39 3c ec e0 d7 bd 30 16 b0 bc ae b1 71 39
       0.011334921 -0.10540947 -0.021494955 0.00023049742
000010 3e ea 06 be 19 75 79 bc c9 7c d0 bc c9 ea 7a ad
       -0.13175294 -0.015225672 -0.025450127 -1.42629875e-11
000020 b5 ef 0b be 40 19 93 bb 19 ef fc 3c fd 76 5d 3d
       -0.1366566 -0.004489094 0.03087573 0.054068554
000030 d5 8b 4b 3d 3b 7c b0 bc 2f 58 fc bb 5c 00 1f bc
       0.0496939 -0.021543613 -0.007700942 -0.0097046755
000040 44 59 89 3c e8 e1 f9 bd e5 ff 3c be 82 ea dd 3d
       0.016766198 -0.12201291 -0.18456991 0.108357444
000050 64 15 85 3c b9 7e 21 be d7 ef ae b9 c2 d6 b0 bc
       0.016245551 -0.15770997 -0.0003336656 -0.02158678
000060 17 fd 13 3d 2f 43 73 ad 43 d1 1f 3d 69 c9 fa bc
       0.036130037 -1.38278685e-11 0.039017927 -0.030613618
000070 5b 21 c5 3c 62 02 79 3d 12 9f 7e ba a7 2a fa 3c
       0.024063757 0.060793288 -0.00097130344 0.030537916
000080 18 17 0d 3c 48 94 05 3e 67 ec 2d 3d 9d 99 17 3d
       0.008611463 0.13044846 0.04246178 0.03701173
000090 59 f1 ee 3c 75 73 d5 3c da a8 14 21 06 3d e5 ab
       0.029167818 0.02605603 5.0367824e-19 -1.6288366e-12
0000a0 a4 42 0b 3d 10 50 d7 3b dc b6 43 80 4a da 61 bb
       0.0339991 0.0065708235 -6.218576e-39 -0.0034462386
0000b0 34 b3 57 3d ad 5c 78 39 5a fc 38 be e2 19 13 3d
       0.052661136 0.00023685647 -0.18065014 0.035913356
0000c0 22 c0 65 bc ae fa 85 a0 48 77 8f 3a 71 c3 ef bb
       -0.014022859 -2.2696962e-19 0.0010945583 -0.0073169996
0000d0 ac 4b 7c 3d 64 00 1f be b7 b1 52 3d 35 5a b5 bd
       0.061595604 -0.15527493 0.051439013 -0.08855096
0000e0 e6 04 05 3d 35 f0 19 80 48 bd 6b 3a 09 c6 41 3b
       0.032475375 -2.382057e-39 0.00089927437 0.00295675
0000f0 3e 83 7f 34 ba f5 eb ae 0d e7 b2 ba 9c a6 41 bd
       2.3796471e-07 -1.07302126e-10 -0.0013649181 -0.04727803

model.5.running_mean f4 [64]
000000 52 62 4e 3c 00 90 f5 3c 5e c5 1d 3c b6 5f 16 3b
       0.012596684 0.029975891 0.009629576 0.0022945232
000010 27 a1 16 3d f6 9c a6 bb 0c 0a 99 3c 67 68 32 35
       0.03677478 -0.005084629 0.018681549 6.646209e-07
000020 2c 4f 38 3c 1c b0 40 3c 83 38 19 3a 76 ce 21 3b
       0.011249345 0.011760738 0.0005844908 0.002468971
000030 2c 5e 44 bc 99 08 29 3c 8a d1 59 3c 26 1f 5e 3c
       -0.011985343 0.010316991 0.013294587 0.013557231
000040 69 ad d6 bb 6c 57 bd 3c 22 13 b3 3d 7b 63 8c bc
       -0.006551434 0.023112975 0.08743884 -0.01713728
000050 94 e7 1b 3c e1 5d 40 3d 0c ee 08 3c 93 11 91 3c
       0.009515662 0.04696453 0.008357536 0.017708575
000060 21 af 03 ba 98 ec 87 34 da a2 ba 3b 74 09 c7 3c
       -0.00050233497 2.5317854e-07 0.005695683 0.0242965
000070 e3 e9 82 bc 0a b4 60 3b 2a 42 28 3c 44 eb ff ba
       -0.015980667 0.0034287 0.010269681 -0.0019525071
000080 c5 6a 0c bc cb 85 33 bd 8c 28 12 bc 1c 09 1a 3b
       -0.008570378 -0.043828767 -0.0089208 0.0023503965
000090 7b 87 84 3a 92 29 70 3a aa 38 73 30 ce 58 71 34
       0.0010111177 0.0009161468 8.848341e-10 2.2477181e-07
0000a0 fe 9f b8 3a e4 f1 37 3c 45 51 18 1b 42 dd 39 3c
       0.0014085767 0.011227105 1.2599405e-22 0.011344256
0000b0 dd 29 0c 3b 5f 3a 0c 3b 0d dc a1 3d b6 15 8c 3a
       0.0021387257 0.0021397097 0.079032995 0.0010687623
0000c0 0c fa 74 3c ef 96 fc 31 eb 3c 0f 3a 53 cc 4e 3c
       0.014952194 7.3513244e-09 0.00054640946 0.012621957
0000d0 de 3a 09 3b ca e7 55 3d e4 79 8c 3b af 64 9e 3c
       0.0020939629 0.052223004 0.0042869914 0.019335119
0000e0 32 46 2f 3b 65 4e 81 8f 1e 79 60 bb 8e 1f 00 bc
       0.002674472 -1.2750579e-29 -0.003425188 -0.007820023
0000f0 49 cb 1c 39 e0 46 36 37 14 dc 1a 3c e8 e7 87 3c
       0.00014953049 1.0864547e-05 0.009451885 0.016590074

model.5.running_var f4 [64]
000000 b1 a4 01 38 a8 58 e4 38 02 ff 33 39 5b 2e 4f 36
       3.0909378e-05 0.00010888401 0.00017165768 3.0872386e-06
000010 57 3d 4e 39 fb 90 58 39 ec a9 80 38 1d ef 03 2b
       0.00019668542 0.00020653375 6.135166e-05 4.6872386e-13
000020 d3 63 9e 37 c8 f2 d2 37 c5 ce 5f 38 4e 4e 93 37
       1.8881552e-05 2.5147005e-05 5.3359912e-05 1.7560229e-05
000030 b0 2e 3c 38 14 a7 12 38 76 fc 03 38 d3 ff 0c 38
       4.4866174e-05 3.4964716e-05 3.1467956e-05 3.3616856e-05
000040 df b1 38 38 66 48 e4 38 0a bc f2 39 7f 65 09 39
       4.4034674e-05 0.000108853725 0.00046297937 0.00013103148
000050 90 db fb 37 c6 11 f6 39 fb ea 81 37 3a 33 3d 38
       3.0023773e-05 0.0004693402 1.548742e-05 4.510882e-05
000060 b9 00 63 38 1b cf b5 29 10 35 95 38 4d ef c1 38
       5.412169e-05 8.073942e-14 7.114757e-05 9.2475304e-05
000070 31 f3 01 38 d7 7b 47 38 5e 93 b1 37 3a cd f5 37
       3.0982486e-05 4.7560632e-05 2.1168667e-05 2.9301842e-05
000080 2a f2 e9 37 8d 58 a4 39 f1 2f 12 38 d2 2b 50 39
       2.788853e-05 0.00031346493 3.485376e-05 0.0001985275
000090 4c 10 17 38 1e 42 78 38 d9 d1 98 24 4d ee 96 29
       3.6016383e-05 5.9189384e-05 6.627499e-17 6.702677e-14
0000a0 fb 41 15 38 9f b0 10 38 20 00 00 00 96 ef c4 37
       3.5585817e-05 3.4496767e-05 4.5e-44 2.3476587e-05
0000b0 ae d8 d2 37 5d 8e 49 36 a0 ed 47 3a 96 bf 20 38
       2.513485e-05 3.00342e-06 0.00076266564 3.83254e-05
0000c0 5e 2f 27 38 13 fb c1 24 ba a4 4f 36 01 6b f2 37
       3.9860017e-05 8.4125744e-17 3.0941287e-06 2.8898476e-05
0000d0 0a 2a b6 38 7c 5a a0 39 a8 a7 cf 38 86 9a c7 38
       8.686267e-05 0.00030584994 9.9017576e-05 9.517842e-05
0000e0 4e 85 4b 38 04 00 00 00 6e 41 c2 37 b6 d4 7b 37
       4.852312e-05 6e-45 2.315707e-05 1.50102915e-05
0000f0 8b 3b 63 34 93 08 09 2f 6f 95 95 37 de ed 0b 38
       2.1162684e-07 1.2463124e-10 1.783177e-05 3.3361714e-05

model.8.weight f4 [4, 64]
000000 92 4f cc 3b f0 66 e6 bc 4a 39 f4 3b c2 15 59 b7
       0.0062350715 -0.028125256 0.0074531185 -1.2939274e-05
000010 db 0c a2 bc d5 99 d6 3b fe 47 10 bd da 48 47 a9
       -0.01978152 0.0065491 -0.035224907 -4.4250065e-14
000020 ad 24 fb bc 0f ed fa bb 8e ba ff bb 01 91 16 bc
       -0.030657137 -0.007657654 -0.0078042215 -0.009189845
000030 51 e7 5d bd 31 f9 aa 39 e3 11 25 bc dc 10 5b bc
       -0.05417568 0.0003261059 -0.010075065 -0.013370719
000040 5c fc 40 3d ea f7 3a bd d6 fb c3 bd d8 ec 1e ba
       0.04711567 -0.045646586 -0.09569518 -0.0006062514
000050 01 56 44 bd b3 91 9e bc 5f be 63 bb 60 c3 b9 bc
       -0.047933582 -0.019356584 -0.0034750921 -0.02267617
000060 cf 2f 31 bc 43 c8 6e a9 4b b3 cf bb 5f 10 df bc
       -0.010814621 -5.3020315e-14 -0.006338512 -0.027229486
000070 db 48 85 bd 42 e3 d3 39 ce 74 d8 bb 6d 44 e1 3c
       -0.06508037 0.00040414376 -0.006605721 0.027498448
000080 83 57 37 3c c8 82 1a 3d c4 9c 50 3d 76 ed 99 bc
       0.011190298 0.03772238 0.050930753 -0.018789988
000090 b1 3d ab bc b4 a9 19 bc 4e d3 2f 20 34 bf b0 a7
       -0.02090344 -0.009378839 1.4892991e-19 -4.9057116e-15
0000a0 1e 43 b9 bc 48 cf ec bc 3e 12 26 00 07 84 ea bb
       -0.022615012 -0.028907433 3.496293e-39 -0.007156852
0000b0 fc 97 e4 bb 57 ed ef b6 35 73 b7 3c ef cd 6c bc
       -0.0069761258 -7.150385e-06 0.022393802 -0.014453395
0000c0 77 9f 28 bc 8f 3c d4 9c 85 e0 ef 39 59 77 1f bc
       -0.010291926 -1.4044637e-21 0.00045752912 -0.009733045
0000d0 9d 00 cb ba 69 c5 8b bc 6a b8 cc bc 9f ee a3 bb
       -0.0015487854 -0.017061906 -0.02499028 -0.005002811
0000e0 b3 3f 8c bc c9 eb 3c 80 f3 b3 42 3d 37 6f fe ba
       -0.017120218 -5.594714e-39 0.047534894 -0.0019411807
0000f0 78 31 dc 32 5c 32 d4 aa 52 bd b3 bb 06 36 0f bb
       2.5633867e-08 -3.769371e-13 -0.005485215 -0.002185227
000100 9e b7 87 3d b8 1b 90 bc 21 9f a1 bb 19 4c 91 37
       0.06626819 -0.017591342 -0.0049322997 1.7320783e-05
000110 d8 5b 6c bc 14 c4 c4 bb 43 07 2d bc 11 91 2c a9
       -0.014426194 -0.0060048196 -0.010560813 -3.8317497e-14
000120 ec ed c7 bc 50 9b b8 3a 6a 0c 85 bd 86 89 4c 3c
       -0.024405442 0.0014084373 -0.064965084 0.01248396
000130 de a7 8f bd 2b c0 98 b9 4c b1 91 3b 2d 3b 83 b8
       -0.0701444 -0.00029134876 0.0044461843 -6.257589e-05
000140 e2 4e 21 3d 0d 13 ec bc 59 54 55 bd b1 26 c2 bb
       0.03938187 -0.028817678 -0.052082393 -0.0059250225
000150 0c f9 34 bc 85 6a 74 bc bb c2 31 ba e6 e4 93 bb
       -0.0110457055 -0.014917974 -0.0006781031 -0.004513371
000160 8a 7c 9b bc c3 7f 54 a9 c8 9d 19 bb 03 42 33 bb
       -0.018980283 -4.7184272e-14 -0.0023439992 -0.0027352578
000170 e9 a2 5f bd ad 49 2f 3d 43 a9 b4 39 e7 06 54 3d
       -0.054598723 0.042794872 0.00034458385 0.051764395
000180 97 e8 de 3b 04 ba 93 3c 8f 5d 16 3d 9c be 0d bd
       0.006802629 0.018033035 0.03671032 -0.034605607
000190 54 08 68 bd fd f1 c7 bc 00 c0 04 20 a8 81 9a a7
       -0.056648567 -0.024407381 1.1244362e-19 -4.288416e-15
0001a0 0c 56 5e bd a3 c9 cd bc b3 24 1b 80 58 6c 24 3a
       -0.05428128 -0.025120562 -2.492724e-39 0.0006272248
0001b0 6d 67 1f 3b af e4 b0 37 bf 24 fb 3c f7 ad 82 bd
       0.0024323121 2.1087324e-05 0.03065717 -0.063808374
0001c0 e4 e0 29 3c db b3 19 9d f8 bd 88 39 74 c4 62 3b
       0.0103685595 -2.0342364e-21 0.0002608148 0.0034601958
0001d0 7f cb 03 3d b0 87 40 bc 43 37 80 bc 21 2e 20 3d
       0.03217649 -0.0117511 -0.01565135 0.039106492
0001e0 19 43 3b bd 76 92 09 00 2c 45 05 3d de 36 ae ba
       -0.045718286 8.7906e-40 0.03253667 -0.0013291498
0001f0 78 08 48 32 1b 45 aa aa 52 ac 1e b9 18 4f 08 ba
       1.1643458e-08 -3.0246018e-13 -0.00015132249 -0.0005199774
000200 bd cc b4 3d b0 da 13 3e ca e2 36 be 9e ac 8c ba
       0.08828113 0.14438891 -0.1785995 -0.0010732596
000210 12 c8 3f 3e c4 0d 3c be a6 60 4b be 64 1e 5d aa
       0.18728665 -0.18364626 -0.19861087 -1.9639287e-13
000220 ec 4a 60 3e 83 15 93 bd 89 8d ab 3d 20 30 da 3d
       0.2190358 -0.071818374 0.08376605 0.1065371
000230 44 8d 21 3d 74 90 cd bd 8d c8 ee bd 89 a3 fd bd
       0.039441362 -0.10037318 -0.11659346 -0.123847075
000240 5f 40 12 3b 69 97 31 3e 2e 65 6b 3e b3 68 6b 3e
       0.00223162 0.17342915 0.22987816 0.22989158
000250 54 1f 99 3d 4c 2e 4c 3e 08 81 e5 bc 6a a7 21 be
       0.074766785 0.19939536 -0.028015628 -0.1578652
000260 04 0b d0 3d 28 36 51 aa 4a 75 e7 3d de e0 4f be
       0.10158351 -1.8581718e-13 0.11301668 -0.20300624
000270 68 ff ef bd 66 0c e3 3d 8d e2 4f bd 16 31 d8 bc
       -0.11718637 0.11086349 -0.050753165 -0.026390593
000280 73 e1 9b bd 8e 49 7b 3e c2 e0 29 3d a6 ed be 3d
       -0.076113604 0.24539778 0.04147411 0.093226716
000290 10 a2 91 3d 64 1d c3 3d e3 64 21 21 fb 46 e2 a8
       0.07110989 0.0952709 5.4682444e-19 -2.5121823e-14
0002a0 e7 50 a9 3d 1a 77 b1 3d b0 c3 46 80 a5 7d 5d bd
       0.08267384 0.08665295 -6.498684e-39 -0.054074902
0002b0 78 bd bf 3d 53 a4 8e ba 01 ef 77 3e fe 7b a7 3d
       0.0936231 -0.0010882713 0.24212267 0.081779465
0002c0 a0 37 24 be db 99 59 a2 7c 22 c3 ba 01 08 e6 bd
       -0.16036844 -2.9490434e-18 -0.0014887596 -0.112319954
0002d0 2f cd c7 3d bf c8 66 3e c1 26 a9 3d 9d 1c 11 3e
       0.097559325 0.22537516 0.08259345 0.14171071
0002e0 aa df a0 3d 2b e0 2c 00 67 93 d7 3b 49 03 82 bd
       0.078551605 4.121178e-39 0.006578851 -0.06348283
0002f0 b5 e1 cd b6 4e c1 8f ad 64 ef 2b bd 72 34 7d be
       -6.135752e-06 -1.6343062e-11 -0.041976348 -0.24727038
000300 17 7c 12 3d 14 96 f2 bc 0e 6a 24 bc ce 6e 14 b9
       0.035762873 -0.029612578 -0.010035051 -0.00014155658
000310 00 d8 60 bc 82 fe 1d bc c8 db 53 bd 90 37 03 a6
       -0.013723373 -0.009643199 -0.05172327 -4.5525056e-16
000320 4b 7d ed bc 1e a8 31 bc 05 56 27 bd 91 53 17 bc
       -0.028990408 -0.010843305 -0.04085352 -0.009236232
000330 ac 09 8f bd 3d a3 1c bc 35 b2 7b bc c7 8b b2 bc
       -0.06984267 -0.009560403 -0.015362312 -0.021795167
000340 3b 44 dc 3c 18 e8 60 bd 03 e4 c8 bd ee 87 60 bc
       0.026888004 -0.05490884 -0.09809115 -0.013704283
000350 4a c3 13 bd 92 e5 60 bc d6 8a c1 bb 03 23 f7 bc
       -0.036074914 -0.013726609 -0.005906443 -0.030168062
000360 c5 c7 b7 bc e8 68 a8 27 be 3a 6d bc cb 48 20 bd
       -0.022434125 4.6743107e-15 -0.014479337 -0.03913192
000370 a0 96 97 bd 82 3e 9b 3b ab 62 1b bc 48 e8 ae 3c
       -0.07401776 0.004737676 -0.0094839735 0.021350995
000380 be ca 8a 39 74 aa 14 3c dd fd ec 3c b9 3d 15 bd
       0.00026472466 0.009073842 0.028929645 -0.036435816
000390 e3 cc 39 bd 71 3b a3 bc 82 9b 23 9f d3 85 b3 25
       -0.04536141 -0.019925805 -3.4645226e-20 3.1142233e-16
0003a0 9a 5f 32 bd a6 54 d0 bc 5e d6 34 80 10 88 26 bc
       -0.043548204 -0.025430989 -4.852346e-39 -0.010164276
0003b0 2a d8 cf bb b2 d7 13 b9 20 0f 58 3d 18 ea 3f bd
       -0.0063429074 -0.00014099365 0.0527488 -0.04685411
0003c0 3a 78 7b bc 0c db 26 1a 42 46 3f b9 8c 26 73 bc
       -0.015348488 3.450494e-23 -0.00018241353 -0.014840733
0003d0 76 dc 56 bb 33 5b 43 bc 51 29 f5 bc 44 54 0e 3d
       -0.0032785214 -0.011923599 -0.029926928 0.03474833
0003e0 17 15 04 bd 9c 0a 47 00 8b b1 08 3d e3 5a a7 bb
       -0.032246675 6.524126e-39 0.033372443 -0.00510727
0003f0 46 12 2a b4 c2 78 db a8 bb 2c 06 bc ab 2f f5 bb
       -1.5839132e-07 -2.4366255e-14 -0.0081893755 -0.007482489

model.8.bias f4 [4]
000000 7b 9f 00 3e 30 0d 26 3e ca 29 03 3e 0c 4d 08 be
       0.12560837 0.16215968 0.1280891 -0.13310641
